lab1/mnist.tflite (tflite, 106108 bytes, 10 tensors)

StatefulPartitionedCall/model_no_concate/conv2d/BiasAdd/ReadVariableOp f4 [10]
0	0xbd7581b8	-0.059938163
1	0xbda41f91	-0.08013833
2	0xbe88194f	-0.2658181
3	0xbd9f3dcf	-0.07775461
4	0xbcadb03e	-0.021202203
5	0xbede7c2f	-0.4345412
6	0xbef77b47	-0.4833624
7	0x3df691d5	0.12039534
8	0xbe22d8d2	-0.15903023
9	0xbe73a83b	-0.23794644

StatefulPartitionedCall/model_no_concate/conv2d_1/BiasAdd/ReadVariableOp f4 [20]
0	0xbd073f55	-0.033019383
1	0xbe3b2a7f	-0.1827793
2	0x3dcff415	0.10153977
3	0xbe295c0a	-0.16539016
4	0xbdbf8ee2	-0.093534246
5	0x3c228589	0.009919533
6	0xbe8ba58f	-0.2727475
7	0xbc43a34f	-0.011940791
8	0xbe919adf	-0.2843847
9	0xbd55d681	-0.05220652
10	0xbeab0dac	-0.33408868
11	0xbd0b0429	-0.033939514
12	0xbd08f4e0	-0.033436656
13	0xbe2725c2	-0.16322997
14	0xbde591d1	-0.11209453
15	0xbe2f3100	-0.17108536
16	0xbe0d9af3	-0.1382864
17	0xbd99fb87	-0.07518678
18	0xbe8fe94c	-0.2810768
19	0xbd3564c3	-0.044285547

StatefulPartitionedCall/model_no_concate/conv2d_2/BiasAdd/ReadVariableOp f4 [30]
0	0xbf07aa94	-0.52994657
1	0xbef666ad	-0.4812521
2	0xbf73b0a6	-0.9519142
3	0x3d847a8f	0.06468689
4	0xbdd2ae2a	-0.102871254
5	0xbcd721ab	-0.026261171
6	0xbd89c510	-0.0672704
7	0x3e476cd1	0.19475104
8	0xbf1a3f5f	-0.60252947
9	0xbe1ba559	-0.15199794
10	0xbec4f1fc	-0.3846587
11	0xbea37ed7	-0.3193271
12	0xbeea1268	-0.45717168
13	0xbf49df63	-0.78856486
14	0xbf00fdea	-0.5038744
15	0xbe8a36bf	-0.26994893
16	0x3dee2541	0.11628199
17	0xbf01aa05	-0.50650054
18	0xbe92a226	-0.28639334
19	0xbe6b360b	-0.22969835
20	0xbf032f9a	-0.5124451
21	0xbe5370d5	-0.20648511
22	0xbec079f5	-0.37593046
23	0xbee3dedb	-0.44505963
24	0xbe7dab03	-0.24772267
25	0x3c19ba1e	0.009382753
26	0xbec4cbab	-0.38436636
27	0xbea039bf	-0.31294057
28	0xbdec734c	-0.11545429
29	0xbe8340b6	-0.25635308

StatefulPartitionedCall/model_no_concate/dense/BiasAdd/ReadVariableOp f4 [64]
0	0xbf75901f	-0.95923036
1	0xbef8b945	-0.4857885
2	0xbf1f8503	-0.62312335
3	0x3c7232ad	0.01478259
4	0xbf588946	-0.8458446
5	0xbf25a270	-0.64700985
6	0xbdde5cfa	-0.108575776
7	0xbf0f9320	-0.5608387
8	0xbecfb229	-0.40565613
9	0xbefdf1e9	-0.49598625
10	0xbed85a22	-0.42256266
11	0xbf1863f2	-0.59527504
12	0xbdc7ff7d	-0.097655274
13	0xbf30a44e	-0.6900071
14	0xbdc0893e	-0.09401177
15	0xbf7d72a8	-0.99003077
16	0xbd8837bd	-0.06651256
17	0xbe146a5b	-0.14493696
18	0xbf653d35	-0.8954652
19	0xbf1430df	-0.5788707
20	0xbe5efbd7	-0.21775757
21	0xbf42e6d1	-0.7613345
22	0xbf2d1435	-0.6760896
23	0xbf5dd58a	-0.8665396
24	0xbf298e6b	-0.6623294
25	0xbdc99f30	-0.09844816
26	0xbd99d263	-0.07510831
27	0xbf44754e	-0.7674149
28	0xbd9383b2	-0.07202853
29	0xbf620dcc	-0.883023
30	0xbfa2c084	-1.2715001
31	0xbf02a317	-0.51030105
32	0xbf465536	-0.7747377
33	0xbedb2926	-0.4280483
34	0xbf50072e	-0.81260955
35	0xbf0821e2	-0.531767
36	0xbf4a1d21	-0.789507
37	0xbeff41b3	-0.49854812
38	0xbed7404f	-0.4204125
39	0xbf27c7e2	-0.6553937
40	0xbdb8caba	-0.09023042
41	0xbf6acd5c	-0.91719604
42	0xbf5f656c	-0.8726413
43	0xbcf88310	-0.030335933
44	0xbf0fe570	-0.5620947
45	0xbecfb37a	-0.40566617
46	0xbee509c3	-0.4473401
47	0xbf4c5798	-0.7982116
48	0xbf6473d8	-0.89239264
49	0xbf46ef7f	-0.7770919
50	0xbee6f197	-0.45106193
51	0xbec08c4f	-0.37607047
52	0xbec83209	-0.39100674
53	0xbf4a85d7	-0.79110473
54	0xbf2f317b	-0.68434876
55	0xbef3c8cb	-0.4761413
56	0xbeb42268	-0.351825
57	0xbf120b02	-0.57048047
58	0xbf92c0ad	-1.146505
59	0xbf9adabd	-1.2098004
60	0xbf328e14	-0.69748044
61	0xbf35e708	-0.7105565
62	0xbf2024a5	-0.62555915
63	0xbf692f57	-0.9108786

StatefulPartitionedCall/model_no_concate/dense_1/BiasAdd/ReadVariableOp f4 [10]
0	0x3e5d2203	0.21595006
1	0x3f5c22cb	0.8599059
2	0xbed889ca	-0.42292625
3	0xbe466a56	-0.19376501
4	0xbe3b1ac2	-0.18271926
5	0xbedd14a0	-0.43179798
6	0xbf4761fd	-0.77883893
7	0xbedca50a	-0.43094665
8	0x3cb0449e	0.021517094
9	0xbed42c82	-0.41440207

model_no_concate/dense/MatMul;StatefulPartitionedCall/model_no_concate/dense/MatMul f4 [64, 270]
0	0x3e7e6ed8	0.24846971
1	0xbdcb9fe4	-0.09942606
2	0x3ecd636e	0.4011492
3	0xbe715d53	-0.23570757
4	0xbecce504	-0.40018475
5	0x3e5bafdd	0.21453805
6	0x3f262150	0.6489458
7	0x3edaafa9	0.42712143
8	0xbe27502d	-0.16339178
9	0x3f0e0dd0	0.55489826
10	0x3eb36b25	0.35042682
11	0xbe2cb11e	-0.1686444
12	0x3fad4a66	1.353833
13	0x3e951a7c	0.29121768
14	0xbf35fa36	-0.71084917
15	0xbed82f8a	-0.4222377
16	0x3eae6cf4	0.340675
17	0x3e2880ea	0.16455427
18	0x3e06c031	0.13159253
19	0xbebfb169	-0.3744004
20	0x3dceab8e	0.10091315
21	0x3d9164a6	0.07099275
22	0x3f4788b5	0.77942973
23	0x3e0e6ea7	0.13909398
24	0x3d2eec13	0.042705607
25	0xbf1f9402	-0.62335217
26	0xbe893b48	-0.2680304
27	0x3f4cb982	0.7997056
28	0x3e5218ab	0.20517223
29	0x3e95df37	0.29271862
30	0x3dc3be2d	0.095577575
31	0x3c9702e8	0.018434003
32	0x3e8e0ca5	0.27744022
33	0xbec941d7	-0.39308044
34	0xbe3eab8f	-0.18620132
35	0x3e8807a9	0.26568344
36	0x3ebe0d9a	0.37119752
37	0xbd3e9e92	-0.046537943
38	0xbed3cb22	-0.41365916
39	0x3d227e36	0.039671145
40	0xbdb2e9ed	-0.08736024
41	0xbe7df08e	-0.24798796
42	0x3f22d5ac	0.6360729
43	0xbe9a0f58	-0.3008983
44	0xbf3e8c3e	-0.7443274
45	0x3f0d925d	0.5530146
46	0x3d7075d8	0.058706135
47	0x3e2bce1a	0.1677784
48	0xbb20ac4b	-0.0024516757
49	0x3f1a59d7	0.60293335
50	0x3eb15b28	0.3463986
51	0xbe17846f	-0.14796613
52	0x3f817ab2	1.0115569
53	0xbe2535d6	-0.16133818
54	0x3ea4a8e7	0.32160112
55	0x3e14b04d	0.14520378
56	0xbec84f20	-0.39122868
57	0x3f899be0	1.0750694
58	0x3d056864	0.032570258
59	0xbdce89ea	-0.10084899
60	0x3ef3d148	0.47620606
61	0xbd9af9e5	-0.07567195
62	0xbd814c4a	-0.06313379
63	0xbf14a8b1	-0.580699
64	0xbd387be1	-0.045040015
65	0xbda4b61c	-0.08042547
66	0xbd051375	-0.03248926
67	0xbd473bbb	-0.048640948
68	0x3e6ae962	0.22940591
69	0x3dd2c3cd	0.10291252
70	0x3e840f31	0.2579284
71	0x3ea75575	0.32682386
72	0x3f1861fe	0.59524524
73	0x3f6bafe7	0.9206528
74	0x3e9b065d	0.30278292
75	0x3f8ad6e4	1.084683
76	0x3f2fd6ec	0.6868732
77	0x3d4e997b	0.05043934
78	0x3e60b7f0	0.21945167
79	0x3eb11633	0.3458725
80	0x3f32aad2	0.697919
81	0x3f427e3d	0.75973874
82	0x3d768d60	0.06019342
83	0x3f68aef9	0.9089199
84	0x3f20cf5c	0.62816405
85	0xbe8fe68d	-0.28105584
86	0x3e879e1b	0.26487812
87	0x3ebc108a	0.36731368
88	0x3f4757a0	0.7786808
89	0xbd246d87	-0.040143516
90	0xbda247ee	-0.07923876
91	0x3ea6ea97	0.32600853
92	0x3eca9540	0.39566994
93	0x3f099746	0.5374645
94	0xbe4cbb09	-0.19993223
95	0xbec57241	-0.3856373
96	0x3e6ffa4c	0.23435324
97	0xbeb9e2f6	-0.3630597
98	0x3e34a6da	0.17641774
99	0x3ed3e8f7	0.41388676
100	0xbecaf972	-0.39643437
101	0x3e1ee883	0.15518384
102	0x3d998e93	0.07497897
103	0x3e162c4f	0.1466534
104	0xbdb75c00	-0.089530945
105	0x3e1b4b76	0.15165505
106	0x3ebfd3d4	0.374663
107	0x3ec4da45	0.38447776
108	0x3f59ef6d	0.8513096
109	0xbb4fad0a	-0.0031688833
110	0xbe7edcd8	-0.24888933
111	0x3ca19c85	0.019727955
112	0x3d9d35df	0.07676291
113	0x3ea9f3ba	0.3319376
114	0xbe595b0b	-0.21226136
115	0xbee87939	-0.45404986
116	0x3f2e5497	0.68097824
117	0x3ea3b764	0.31975853
118	0x3e6c9873	0.2310503
119	0x3f3f9221	0.7483235
120	0x3f2c8f5c	0.6740625
121	0xbde1330b	-0.10996064
122	0x3e8a6c50	0.2703576
123	0x3ea55855	0.32293954
124	0x3f47e2fa	0.78080714
125	0x3f2c6eaa	0.6735636
126	0xbe4d5f85	-0.20055969
127	0xbe869a3d	-0.2628955
128	0x3f7bd31d	0.9836901
129	0xbeb805bb	-0.35941872
130	0x3e4dd62b	0.2010123
131	0xbcdbf217	-0.026848836
132	0x3ed6ab75	0.41927686
133	0x3d2b982f	0.04189318
134	0x3e983c89	0.29733685
135	0x3ea3dc5d	0.3200406
136	0xbdca4ab7	-0.09877532
137	0x3f10d868	0.5658021
138	0x3f4ed503	0.8079378
139	0x3e9def18	0.30846477
140	0x3dd45b18	0.10368937
141	0x3eeb3bd0	0.4594407
142	0xbea1f0c0	-0.3162899
143	0x3e57e7dd	0.21084543
144	0xbeea721e	-0.4579019
145	0x3d21efaf	0.03953522
146	0x3e9eea12	0.31037956
147	0x3e11f0fa	0.14252082
148	0x3e8cc5fa	0.27494794
149	0x3f62dddd	0.88619787
150	0x3f0ee4fc	0.5581815
151	0x3e9d797d	0.3075675
152	0x3f15cabd	0.5851248
153	0x3ea1474b	0.31499705
154	0xbdca4121	-0.098757036
155	0xbd53d51d	-0.051716913
156	0x3e9158da	0.283881
157	0xbea31bb6	-0.3185708
158	0x3f16eea2	0.58957875
159	0x3e88b1be	0.26698107
160	0xbe9447ac	-0.2896093
161	0x3ee3e903	0.4451371
162	0x3e93de6b	0.2888063
163	0x3deb85df	0.11500143
164	0x3f452873	0.77014846
165	0xbf14718e	-0.5798577
166	0x3f056b17	0.5211653
167	0x3ed27ed6	0.41112393
168	0x3f3df072	0.74195015
169	0x3e325cbe	0.17418191
170	0x3f704b8d	0.9386528
171	0xbdd07546	-0.10178618
172	0xbe336fc0	-0.17523098
173	0x3cddf078	0.027092203
174	0x3d160d60	0.03663385
175	0xbc9ac101	-0.01889086
176	0x3f52dd4b	0.82368916
177	0x3eced36a	0.4039567
178	0x3e81ebb3	0.25375137
179	0x3e99a526	0.3000881
180	0xbe0aadb6	-0.13542828
181	0x3e624b21	0.22098972
182	0x3e88fda7	0.2675602
183	0x3f56b705	0.83873016
184	0x3edc791b	0.43061146
185	0x3f15e880	0.5855789
186	0xbe4dbb1c	-0.20090908
187	0xbeadf186	-0.3397333
188	0xbcf1cd3a	-0.029516805
189	0x3efecc32	0.49765164
190	0x3f6efcd9	0.93354565
191	0x3cba0e2a	0.022711832
192	0x3f00b357	0.5027365
193	0x3e785165	0.242498
194	0x3ca952db	0.020669391
195	0xbeee5b6b	-0.4655412
196	0xbf1da719	-0.61583096
197	0xbd4858d9	-0.048912857
198	0xbeef7a23	-0.4677287
199	0x3f86a96c	1.0520453
200	0xbdc9bcd5	-0.0985047
201	0xbea793cd	-0.3272995
202	0x3d497a6b	0.049189012
203	0x3ed3a411	0.4133611
204	0xbe8a92e3	-0.2706519
205	0xbe3bbae1	-0.18333007
206	0xbe3d72d9	-0.18500842
207	0xbdbadd53	-0.091242455
208	0xbe318947	-0.17337523
209	0x3f82dec9	1.0224239
210	0x3df6c08c	0.12048444
211	0xbec48fb5	-0.3839089
212	0x3f17d07c	0.59302497
213	0x3eb12ae8	0.34603047
214	0x3e9870da	0.297736
215	0x3dc68a9e	0.09694408
216	0x3ed34a4f	0.4126763
217	0x3f6c2e8c	0.92258525
218	0x3dcfc5f2	0.10145177
219	0x3e6b0ad3	0.22953348
220	0x3f110288	0.5664449
221	0x3f455bca	0.77093184
222	0x3d79fab2	0.061030097
223	0x3fae435d	1.3614308
224	0x3e313af1	0.1730764
225	0x3d41d80b	0.047325175
226	0xbf3893c5	-0.7210048
227	0x3dcd0799	0.10011215
228	0xbf43c6c1	-0.7647515
229	0x3c81de93	0.015853202
230	0xbe2ac04c	-0.16674918
231	0xbd9a5995	-0.07536618
232	0x3f02a358	0.5103049
233	0x3f4744f1	0.7783957
234	0x3e2ee07e	0.17077824
235	0xbe824f21	-0.25450996
236	0x3ee140c3	0.43994722
237	0xbe61f981	-0.22067834
238	0xbec93389	-0.3929713
239	0xbda82040	-0.08209276
240	0xbe275185	-0.16339691
241	0x3de36f51	0.11105216
242	0x3c8cf867	0.017208291
243	0x3e668b9a	0.22514191
244	0x3f2c6715	0.6734479
245	0xbeb81465	-0.3595306
246	0x3f27d24c	0.6555526
247	0x3f018199	0.50588375
248	0xbe0867ec	-0.13320893
249	0x3e50952c	0.20369405
250	0xbead856c	-0.33890855
251	0x3f5fcd6d	0.8742283
252	0x3ecfeedb	0.4061192
253	0xbd31e046	-0.043426774
254	0x3e8add1e	0.27121824
255	0x3f473e50	0.77829456

model_no_concate/dense_1/MatMul;StatefulPartitionedCall/model_no_concate/dense_1/MatMul f4 [10, 64]
0	0xbf2be871	-0.6715155
1	0xbefdf090	-0.49597597
2	0xbf5fff7e	-0.87499225
3	0xbe93ba2e	-0.2885298
4	0xbf9dee0d	-1.2338272
5	0xbe742450	-0.23841977
6	0x3c53ce72	0.012927638
7	0xbf806ec8	-1.0033808
8	0xbff2760f	-1.8942279
9	0xbf99c5fc	-1.2013545
10	0xbe892814	-0.2678839
11	0xbee116ac	-0.4396261
12	0xbeeea3d5	-0.4660937
13	0x3cc0271c	0.023456149
14	0x3dbd2bee	0.092368945
15	0xbcd31ffd	-0.02577209
16	0xbf43f6d3	-0.765485
17	0xbfac0bcb	-1.3441099
18	0xbe352280	-0.17688942
19	0xbf21cca9	-0.6320291
20	0xbfe3eaf8	-1.7806082
21	0xbe831363	-0.25600728
22	0xbdbfc5e7	-0.09363919
23	0xbea313ac	-0.31850946
24	0xbf9c40e1	-1.22073
25	0xbfbaf529	-1.4606067
26	0x3e30df7d	0.17272754
27	0xbe179212	-0.14801815
28	0xbfb35bd6	-1.4012401
29	0xbe887151	-0.26648954
30	0x3e4ebfea	0.20190397
31	0xbfab7ebc	-1.3398051
32	0xbe954bb8	-0.2915933
33	0xbf096e07	-0.53683513
34	0xbf53a36f	-0.82671255
35	0xbf6ccfa9	-0.92504364
36	0x3e1eb690	0.1549933
37	0xbe72fbc0	-0.23728848
38	0xbfc5ce59	-1.5453597
39	0xbfa384a0	-1.2774849
40	0x3e77eaed	0.24210711
41	0xbfabf58f	-1.3434314
42	0xbe0e30f8	-0.13885868
43	0xbf34228b	-0.7036521
44	0xbe0e9e22	-0.1392751
45	0xc001b9ac	-2.0269575
46	0xbd70b517	-0.05876645
47	0xbf9a8d73	-1.2074417
48	0xbf9472a0	-1.1597481
49	0xbf42dcb6	-0.7611803
50	0xbfaf85e9	-1.3712741
51	0xc00ede44	-2.232316
52	0xbf2087a8	-0.62706995
53	0x3e6f0feb	0.23345916
54	0xbfbd61f1	-1.4795514
55	0xbfc90cb3	-1.5707
56	0xbf955a82	-1.1668246
57	0xbfb212fc	-1.3912044
58	0xbfcceee6	-1.6010406
59	0xbef94fd5	-0.4869372
60	0xbfde913d	-1.7388073
61	0xbf6e12aa	-0.9299723
62	0xbfc20ae6	-1.5159576
63	0xbee54d36	-0.4478547
64	0xbf98f564	-1.1949887
65	0xbfd02d2d	-1.6263787
66	0xbf391b24	-0.7230704
67	0x3dd5bb78	0.104361475
68	0xbea6ee5d	-0.32603732
69	0xbdf5a6ba	-0.11994691
70	0xbcd069ba	-0.02544104
71	0xbe2323a4	-0.15931565
72	0xbfd22df7	-1.6420277
73	0xbd997ed5	-0.074948944
74	0xbec750e2	-0.38928896
75	0xbf66203a	-0.89892924
76	0x3ce7bd23	0.02828843
77	0xbf7cb2dd	-0.98710424
78	0xbe17df64	-0.1483131
79	0xbfbefbbc	-1.4920573
80	0x3ec75352	0.38930756
81	0xbf9c7550	-1.2223301
82	0xbff2e861	-1.8977166
83	0xbfcbea4e	-1.5930879
84	0xbe94dcb4	-0.29074633
85	0xbf398d9e	-0.72481716
86	0xbf0e3188	-0.5554433
87	0xbfe4b7cb	-1.7868589
88	0xbf8119d4	-1.0086007
89	0xbdecacd7	-0.11556404
90	0xbe2bf63e	-0.16793153
91	0xbfcede13	-1.6161522
92	0xbf8be77a	-1.0930016
93	0xbfe06567	-1.7530946
94	0xbe2cc5aa	-0.16872278
95	0xbf376e03	-0.7165224
96	0xbfb3b2e0	-1.4038963
97	0xbe5a2650	-0.21303678
98	0xbffd2ef9	-1.977996
99	0xbf8f0e78	-1.117629
100	0xbfe4e378	-1.7881918
101	0xbf5eb7f6	-0.8699945
102	0xbf0da1d0	-0.5532503
103	0xbf757c15	-0.9589246
104	0x3e3b0329	0.18262924
105	0xbf64e6a6	-0.8941444
106	0xbec67b52	-0.3876596
107	0xbeb84618	-0.35990977
108	0xbf85cb68	-1.04527
109	0xbfe92878	-1.8215475
110	0xbf95b138	-1.1694708
111	0xbef10999	-0.47077635
112	0xbffbb761	-1.9665338
113	0xbf3022d5	-0.6880315
114	0xbec5cda0	-0.38633442
115	0xbf51c7b5	-0.81945354
116	0xbe650511	-0.22365214
117	0xbffb7633	-1.9645447
118	0xbeff5f4c	-0.49877393
119	0xbeac205d	-0.3361844
120	0xbfa5e696	-1.2960994
121	0xbf2d7b4b	-0.67766255
122	0xbe30020b	-0.1718828
123	0xc0213809	-2.519045
124	0xbf2091cd	-0.62722474
125	0xbfac39ce	-1.345514
126	0xbfa24e53	-1.2680153
127	0xbfc3cf1b	-1.5297579
128	0x3d932177	0.07184117
129	0xbf9b84b2	-1.214987
130	0xbdf11718	-0.11771983
131	0xbd923ac4	-0.07140115
132	0xbe803f5e	-0.25048345
133	0xc00aa880	-2.1665344
134	0xbfdebad3	-1.7400764
135	0xbeb233a6	-0.3480503
136	0xbfc67a21	-1.5506021
137	0xbf75e354	-0.9605
138	0xbf8f6246	-1.1201866
139	0xbd9d770c	-0.07688722
140	0xbee1df8e	-0.4411587
141	0xbe54c67f	-0.20778845
142	0xbf9fcb0a	-1.2483838
143	0x3d910c3c	0.07082412
144	0xbded0268	-0.115727246
145	0xbfbaa682	-1.4582064
146	0xbfa78722	-1.3088114
147	0xbfa421a5	-1.2822767
148	0xbf422aff	-0.75846857
149	0xbe24fba9	-0.16111626
150	0xbe8e3c37	-0.27780315
151	0xbf92a6fd	-1.1457211
152	0x3e40fc9c	0.18846363
153	0xbe651c17	-0.22373997
154	0xbe8779b7	-0.2646005
155	0xbf422e24	-0.75851655
156	0xbfa7b116	-1.3100917
157	0x3d504456	0.05084642
158	0xbed16fa9	-0.40905502
159	0xbf8a14ce	-1.0787599
160	0xbfa2af2c	-1.2709708
161	0xbf01f8e2	-0.5077039
162	0xc004c055	-2.074239
163	0xbf7ab379	-0.97930104
164	0xbfbc5bc6	-1.4715507
165	0xbfa1b234	-1.2632508
166	0xbe1af3f8	-0.15132129
167	0xbd6b4aae	-0.057444267
168	0xbe769a2d	-0.24082251
169	0xbf94b311	-1.1617147
170	0xbdc551f6	-0.096347734
171	0xbfdf7777	-1.7458333
172	0xbe44f4bb	-0.19233982
173	0xbecea801	-0.40362552
174	0xbeb36730	-0.35039663
175	0xbec3e87e	-0.38263315
176	0xbf034d3d	-0.5128973
177	0xbfd626fb	-1.6730646
178	0xbf5bf9e6	-0.8592819
179	0xbfd49058	-1.660655
180	0xbf8a0e7e	-1.0785673
181	0xbfd13732	-1.6344969
182	0xbf077b69	-0.52922684
183	0x3d00dbb6	0.031459533
184	0xbe736dd4	-0.23772365
185	0xbfdf6420	-1.7452431
186	0xbe8383d7	-0.25686523
187	0x3d5686c8	0.05237463
188	0xbf971c8d	-1.1805588
189	0xbdd235a0	-0.102641344
190	0xbf919a0e	-1.1375139
191	0xbf87c544	-1.0607076
192	0xbf5a0de6	-0.8517746
193	0xc0548246	-3.3204513
194	0xbdad0de7	-0.08449917
195	0xbf809cea	-1.0047886
196	0xbf95719e	-1.1675298
197	0xbfa8e45b	-1.3194689
198	0xbfca642b	-1.5811819
199	0xbeb60c6f	-0.3555636
200	0xbfcc3af0	-1.5955486
201	0x3d5dc0fe	0.05413913
202	0xbdba0b63	-0.09084203
203	0x3de702e2	0.11279847
204	0xbe175a26	-0.14780483
205	0x3b876701	0.004132152
206	0xbf905bb9	-1.1277992
207	0xbf24d241	-0.6438332
208	0xbfafc6e3	-1.373257
209	0xbf53c0f9	-0.8271633
210	0xbe287bb1	-0.16453435
211	0xbf9589b5	-1.168265
212	0xbfdd0f28	-1.727025
213	0xbf971520	-1.1803322
214	0xbea4f277	-0.32216236
215	0xc00d5ae1	-2.2086718
216	0xbf96a9f0	-1.1770611
217	0xbf933213	-1.1499656
218	0xbe45c9eb	-0.19315307
219	0x3e4b96d0	0.19881749
220	0x3e3ddd7f	0.18541525
221	0xbf4b2547	-0.79353756
222	0xbf9a0a81	-1.2034456
223	0xbf8313ae	-1.0240381
224	0xbfd60405	-1.6719977
225	0xbf1c30f7	-0.61012214
226	0xbf5e2ece	-0.8679017
227	0xc01d1a7a	-2.454741
228	0xc003d600	-2.0599365
229	0xbe7115ac	-0.23543423
230	0xbfa66853	-1.3000587
231	0x3e7a6abb	0.24454777
232	0x3d2d02c5	0.04223897
233	0xbf898288	-1.074296
234	0xbf879de6	-1.0595062
235	0xc01dacd0	-2.4636726
236	0xbf3eb1af	-0.74489874
237	0xbe223f70	-0.15844512
238	0xbf1aa6ae	-0.60410583
239	0xbfd7e62f	-1.6867121
240	0xbfc27c3a	-1.5194161
241	0xbffbc526	-1.966954
242	0xbf6a0bee	-0.91424453
243	0xbff4d409	-1.9127208
244	0x3f065674	0.52475667
245	0xbf88c693	-1.06856
246	0xbfa524b7	-1.290183
247	0x3da74455	0.0816733
248	0xbf854e55	-1.041453
249	0xbfd4b0db	-1.6616472
250	0xbe073ae7	-0.13206063
251	0xbc48cc50	-0.012255743
252	0x3c26edf5	0.010188569
253	0xbda98ec4	-0.082791835
254	0xbe99597e	-0.2995109
255	0xbea89dea	-0.3293298

model_no_concate/conv2d/Conv2D;StatefulPartitionedCall/model_no_concate/conv2d/Conv2D f4 [10, 3, 3, 1]
0	0xbe6e190c	-0.23251742
1	0x3e8f6a05	0.28010574
2	0xbe0af322	-0.1356931
3	0x3e678c9f	0.22612236
4	0x3d10b3c3	0.035327684
5	0xbeb924e7	-0.36160967
6	0x3c49f71b	0.012326981
7	0xbe549089	-0.20758261
8	0xbe7d0797	-0.24709927
9	0x3cece10b	0.028915903
10	0xbec0d295	-0.3766066
11	0xbde7c00e	-0.113159284
12	0xbd902bd1	-0.07039607
13	0xbdde467f	-0.1085329
14	0xbc8140bf	-0.015777944
15	0x3e4ed939	0.20200051
16	0x3d8a323a	0.06747861
17	0x3e233dc6	0.15941533
18	0x3e12f320	0.14350557
19	0xbe225ea9	-0.15856422
20	0x3d13151c	0.035908803
21	0x3e8eb311	0.27870992
22	0xbe567084	-0.20941359
23	0xbe72f753	-0.23727159
24	0x3e115d2a	0.14195696
25	0x3e7c35d5	0.2462991
26	0x3c7ff8aa	0.015623251
27	0x3d733ac5	0.05938222
28	0xbd11306b	-0.035446566
29	0x3d9543e5	0.072883405
30	0x3d7b2262	0.061312087
31	0x3ddab930	0.10679853
32	0x3dca0091	0.09863389
33	0xbdfef66c	-0.12449345
34	0xbe6906bf	-0.2275648
35	0xbee6fc42	-0.45114332
36	0xbcc139f8	-0.023587212
37	0x3dcd1692	0.100140706
38	0x3e36f646	0.17867383
39	0xbe7ef543	-0.24898247
40	0xbe1f540f	-0.1555941
41	0x3e0c7f7b	0.13720505
42	0xbed6ff19	-0.419915
43	0xbe9f4d80	-0.31113815
44	0xbe7f254c	-0.24916571
45	0x3e07cedb	0.13262503
46	0x3d77339b	0.06035195
47	0xbefe5bd5	-0.49679437
48	0xbe3c04b0	-0.18361163
49	0x3e129aca	0.1431686
50	0xbdc2b81e	-0.09507774
51	0xbd9d7023	-0.07687404
52	0x3c760ddf	0.015017956
53	0x3d2e0b4c	0.042491242
54	0x3aaf4137	0.0013370876
55	0xbe3fbb08	-0.1872369
56	0x3e0870c6	0.1332427
57	0xbd2adf78	-0.041717023
58	0x3de05fd5	0.109557785
59	0x3d5a7b30	0.053340137
60	0x3e702d30	0.23454738
61	0xbdb05ff2	-0.0861205
62	0xbe969007	-0.2940676
63	0xbe0eaea0	-0.13933802
64	0x3ee036fd	0.43791953
65	0xbe5f86c5	-0.21828754
66	0xbea7f261	-0.32802108
67	0xbf6ec955	-0.9327596
68	0xbedc529a	-0.4303177
69	0x3e678695	0.22609933
70	0xbe07b79e	-0.13253638
71	0xbf0eaa27	-0.5572838
72	0xbdef13aa	-0.116736725
73	0xbe3beb55	-0.18351491
74	0x3c6e381e	0.014539747
75	0xbed9790b	-0.4247516
76	0x3d51003c	0.051025614
77	0x3e42c982	0.19022182
78	0xbedbe451	-0.4294763
79	0xbd64d7b8	-0.055869788
80	0x3e057cb3	0.1303585
81	0x3c8197e6	0.015819501
82	0xbc25aa88	-0.010111459
83	0xbe10f5ca	-0.14156261
84	0xbe9279ec	-0.28608644
85	0x3e4dee64	0.2011047
86	0xbe032509	-0.12807097
87	0xbed8ddea	-0.42356807
88	0xbe802042	-0.2502461
89	0x3d0eb84a	0.03484372

model_no_concate/conv2d_1/Conv2D;StatefulPartitionedCall/model_no_concate/conv2d_1/Conv2D f4 [20, 3, 3, 10]
0	0xbe5509df	-0.20804547
1	0xbf053a72	-0.52042305
2	0xbf0c449c	-0.5479219
3	0x3f0aa439	0.54156834
4	0x3f4f6529	0.81013733
5	0xbd6a820e	-0.057252936
6	0xbe228a67	-0.15873109
7	0xbe23c6c1	-0.15993787
8	0xbe37a470	-0.17933822
9	0x3df955df	0.12174582
10	0xbe807ff3	-0.25097618
11	0xbe84b8de	-0.25922292
12	0x3df38a4a	0.11891611
13	0xbeb09d92	-0.34495217
14	0x3f1c093a	0.6095158
15	0x3e8c6eab	0.27428183
16	0x3d6d0851	0.05786926
17	0xbf8151ab	-1.0103048
18	0x3ec8713f	0.391489
19	0x3db9ad98	0.090663135
20	0x3d4b85c3	0.049688112
21	0x3ec0ef86	0.37682742
22	0x3f2d811a	0.6777512
23	0xbf2c3587	-0.67269176
24	0xbf43a229	-0.7641931
25	0xbd88c301	-0.06677819
26	0xbeabdd8c	-0.33567464
27	0x3eb35648	0.35026765
28	0xbdaff8cf	-0.08592378
29	0xbcd65058	-0.026161358
30	0x3de41786	0.11137299
31	0x3e98c8fc	0.2984084
32	0x3f199831	0.5999785
33	0xbe2fa148	-0.17151368
34	0x3f15fbfd	0.5858763
35	0xbe9c3526	-0.305093
36	0xbe70565b	-0.23470442
37	0xbd4fcb4e	-0.050730996
38	0x3dd9aa99	0.10628242
39	0x3d96ef83	0.07369902
40	0xbe97877b	-0.2959555
41	0xbf506cc8	-0.81415987
42	0xbe896e39	-0.26841906
43	0xbed831b5	-0.42225423
44	0x3db29641	0.08720065
45	0x3d47270f	0.048621234
46	0xbe6e942c	-0.2329871
47	0xbf8de472	-1.1085341
48	0xbe98f5b9	-0.29874972
49	0x3dab55a5	0.08365945
50	0xbecf58cc	-0.40497434
51	0xbc913335	-0.017724613
52	0xbd5561dd	-0.052095283
53	0xbf3f80d1	-0.74805933
54	0xbf6c7b1d	-0.92375356
55	0x3e79d6a6	0.24398288
56	0xbd712387	-0.058871772
57	0xbe4fb3e9	-0.20283474
58	0xbe929a29	-0.2863324
59	0xbe05bf57	-0.13061272
60	0x3e26b227	0.16278897
61	0x3f6317bb	0.88708085
62	0xbf401b43	-0.750416
63	0x3f1037d4	0.56335187
64	0xbf1fc716	-0.62413156
65	0xbd1faab6	-0.038981162
66	0xbd3675cc	-0.044545934
67	0xbebc83e8	-0.36819386
68	0x3e09bd5a	0.13451138
69	0xbea43551	-0.32071927
70	0x3f47c6e4	0.7803786
71	0xbed825fc	-0.4221648
72	0xbf08a1e1	-0.5337201
73	0x3ebaf0e6	0.36511916
74	0xbf5bc0ec	-0.8584125
75	0xbeb85f99	-0.36010435
76	0x3e5e1fe1	0.21691848
77	0xbf4d8333	-0.8027832
78	0x3ea9885f	0.33111855
79	0xbcf10323	-0.029420441
80	0xbe601a7c	-0.21885103
81	0xbecec208	-0.4038241
82	0xbe4dea20	-0.20108843
83	0x3ce11b47	0.027478827
84	0xbec4c25e	-0.3842954
85	0xbce375df	-0.027766166
86	0x3eb242e6	0.34816664
87	0xbed6c0fd	-0.41944113
88	0xbdd6fec8	-0.104978144
89	0x3e341d9f	0.17589425
90	0xbf142176	-0.5786356
91	0x3ec4fde4	0.38474953
92	0x3ecc710c	0.39929998
93	0xbf1cf997	-0.61318344
94	0xbdbe3e72	-0.09289254
95	0x3e838661	0.2568846
96	0x3d2c362f	0.04204386
97	0xbe44a6be	-0.19204232
98	0x3c766e9e	0.015041022
99	0x3ca1848f	0.01971653
100	0x3e934330	0.28762197
101	0x3ea3b02b	0.31970343
102	0x3d833910	0.06407368
103	0xbe0b0659	-0.1357664
104	0xbdf4ab84	-0.119467765
105	0xbe3232d0	-0.17402196
106	0xbd2864e1	-0.04111183
107	0xbed1b512	-0.40958458
108	0x3e12768d	0.14303036
109	0xbe43c5a4	-0.19118363
110	0x3f4d64df	0.8023204
111	0xbece10bf	-0.4024715
112	0xbe626172	-0.22107485
113	0x3bf18efc	0.0073717814
114	0xbf32c994	-0.69838834
115	0xbe586a6e	-0.2113435
116	0x3e979ab6	0.29610223
117	0xbe030144	-0.12793452
118	0xbf1551d3	-0.5832798
119	0xbe1d9c61	-0.15391685
120	0xbd2fb348	-0.042895585
121	0xbd49096f	-0.049081262
122	0x3c85b224	0.016320296
123	0x3ee35c33	0.4440628
124	0x3e4b40c2	0.19848922
125	0xbdc2e0e7	-0.09515553
126	0x3b301473	0.0026867657
127	0xbe99b06c	-0.30017412
128	0xbe7592e0	-0.2398181
129	0x3e663550	0.22481275
130	0x3eb331fb	0.3499907
131	0xbf058370	-0.5215368
132	0xbd372024	-0.044708386
133	0x3ec70e30	0.38878012
134	0x3ddad54a	0.10685213
135	0xbe485e64	-0.19567257
136	0xbdb63b74	-0.088980585
137	0xbb1d967e	-0.0024046
138	0xbf1f9184	-0.62331414
139	0x3cf3637d	0.029710526
140	0x3ed7472f	0.42046496
141	0xbee30fba	-0.44347936
142	0x3d4d805f	0.050171252
143	0xbe119a33	-0.14218979
144	0xbed3ef84	-0.41393673
145	0xbe2e6f9c	-0.17034763
146	0xbf0c8ecb	-0.54905385
147	0x3ea3d995	0.3200194
148	0xbf43e370	-0.7651892
149	0xbe0c3cc0	-0.1369505
150	0xbe692c62	-0.22770837
151	0x3c5b8de3	0.013400528
152	0x3e3e0725	0.18557413
153	0x3e172f60	0.14764166
154	0x3ebfbd84	0.37449276
155	0x3d0c69ce	0.03428059
156	0xbecd26ea	-0.40068752
157	0x3e85605c	0.2605008
158	0xbff0805c	-1.8789172
159	0x3bbcc053	0.0057602315
160	0xbf83902e	-1.0278375
161	0x3d03739f	0.032092687
162	0x3d9ea723	0.077467225
163	0xbed4a367	-0.41530916
164	0x3c42af30	0.011882588
165	0xbe2d2afb	-0.16910927
166	0xbf21e8b3	-0.63245696
167	0x3ef5690f	0.47931716
168	0xbf33b6f5	-0.70201045
169	0x3c80cfd0	0.015724093
170	0xbf1321f9	-0.57473713
171	0x3ddf8e8a	0.10915859
172	0xbd3fee5c	-0.046858177
173	0xbec39de9	-0.38206413
174	0xbeca53ea	-0.39517146
175	0xbe303697	-0.17208324
176	0x3cd5500b	0.026039144
177	0x3e72a1ce	0.23694536
178	0xbdd1741d	-0.10227225
179	0xbeb4f380	-0.35342026
180	0x3d987098	0.074433506
181	0x3dc51fb9	0.09625191
182	0x3c1333a1	0.008984477
183	0xbedbd5f7	-0.4293668
184	0xbf1cee24	-0.61300874
185	0xbcfc8623	-0.03082568
186	0x3ecaf57c	0.39640415
187	0xbe80ee60	-0.25181866
188	0x3c610f1f	0.013736515
189	0xbe9a0878	-0.30084586
190	0xbddf24d0	-0.10895693
191	0xbd68f2fc	-0.056872353
192	0x3eb42006	0.35180682
193	0xbe0727b1	-0.13198735
194	0xbf4f9c4d	-0.8109787
195	0xbda0807d	-0.07837007
196	0xbccc2137	-0.024918182
197	0xbe99cf96	-0.30041188
198	0xbe5dfc46	-0.21678266
199	0xbe9fe1df	-0.31227013
200	0xbe6fcc00	-0.23417664
201	0x3ec805b0	0.3906684
202	0xbdb5a0c0	-0.08868551
203	0xbf43198e	-0.7621087
204	0xbe8762b1	-0.26442483
205	0xbd7f00c7	-0.0622566
206	0xbed6f8e6	-0.4198677
207	0xbf28b823	-0.6590597
208	0x3ea8bbd6	0.32955807
209	0x3b29b730	0.0025896542
210	0xbf27c72c	-0.6553829
211	0xbe5aad62	-0.21355203
212	0x3f0fd19e	0.56179225
213	0xbe35551e	-0.17708251
214	0x3ec43994	0.3832518
215	0x3eafd189	0.3433955
216	0x3d790cb4	0.06080313
217	0xbeeb6a84	-0.45979702
218	0xbe9d5d9d	-0.30735484
219	0x3eb0bb10	0.34517717
220	0xbf14b761	-0.58092314
221	0x3f18846d	0.59577066
222	0xbe0fbe34	-0.140374
223	0xbe2df928	-0.16989577
224	0xbe854114	-0.26026213
225	0x3e0d0131	0.13769986
226	0xbcf4e7e4	-0.02989573
227	0xbf0d7471	-0.552558
228	0xbe9305c0	-0.28715324
229	0x3d2ba56c	0.041905805
230	0x3ee66143	0.4499608
231	0xbd20c52a	-0.03925053
232	0xbeec25c0	-0.4612255
233	0xbe4cf707	-0.20016108
234	0xbf0acc0b	-0.54217595
235	0xbd8edb9c	-0.06975481
236	0x3dc13720	0.094343424
237	0xbfa9b9a7	-1.3259782
238	0xbf20b47b	-0.6277539
239	0xbe4cab8f	-0.1998732
240	0xbf0a2783	-0.5396654
241	0xbecd1276	-0.40053147
242	0x3df01a00	0.11723709
243	0x3e62788a	0.22116295
244	0x3f12fe61	0.574194
245	0x3e589d94	0.21153861
246	0xbe3973bb	-0.18110554
247	0xbe142349	-0.14466585
248	0xbf1002cc	-0.5625427
249	0x3e967b32	0.29390866
250	0x3d885b0c	0.06657991
251	0x3ed9a533	0.4250885
252	0xbf069ebb	-0.52585953
253	0x3ec4708f	0.38367125
254	0x3dbc8f7f	0.09207057
255	0xbdb46e4f	-0.08810102

model_no_concate/conv2d_2/Conv2D;StatefulPartitionedCall/model_no_concate/conv2d_2/Conv2D f4 [30, 3, 3, 20]
0	0x3f13bf16	0.5771345
1	0xbe633198	-0.22186887
2	0xbda5dba0	-0.08098531
3	0x3dbacfc5	0.0912166
4	0xbe23d2c2	-0.15998366
5	0xbd1fcc8e	-0.039013438
6	0x3e7ac0fb	0.24487679
7	0xbe2bd210	-0.16779351
8	0xbeb61793	-0.3556486
9	0xbd95383e	-0.07286118
10	0xbe14c860	-0.14529562
11	0xbe334741	-0.1750765
12	0x3edde0fc	0.43335712
13	0xbdeb379e	-0.114852175
14	0xbd54bf2b	-0.051940124
15	0x3d6127e5	0.054969687
16	0x3e2eb377	0.17060648
17	0xbdcd0763	-0.100111745
18	0xbe2584ac	-0.16163892
19	0x3ead6609	0.3386691
20	0x3efb6398	0.49099422
21	0x3f2eae4a	0.68234694
22	0x3e0d9fed	0.13830538
23	0x3b8a9437	0.0042290944
24	0x3f25a4f6	0.64704835
25	0xbcb2ccc7	-0.021826161
26	0x3e0467b4	0.12930185
27	0xbf218a35	-0.6310151
28	0xbf130b09	-0.57438713
29	0xbe8ef1c9	-0.27918842
30	0xbf446255	-0.7671254
31	0xbe889a45	-0.26680198
32	0x3ed5a10a	0.41724426
33	0xbd51f6f7	-0.051260915
34	0xbf4a6f47	-0.79076046
35	0xbe9750e0	-0.2955389
36	0xbd809cc4	-0.06279901
37	0xbeabe3db	-0.33572277
38	0x3dc78522	0.0974219
39	0x3f0a4b3d	0.54021055
40	0x3ef00347	0.468775
41	0x3df941fe	0.1217079
42	0xbebbc673	-0.36674842
43	0x3d91eab4	0.07124844
44	0x3f1b7bb0	0.6073561
45	0x3f11df69	0.5698152
46	0x3cf9698d	0.030445838
47	0x3d83aed4	0.0642983
48	0x3ea31a81	0.31856158
49	0x3dcbe49a	0.09955712
50	0xbf076a5f	-0.52896684
51	0xbf1ed221	-0.6203938
52	0xbeb24327	-0.34816858
53	0xbd212b08	-0.03934768
54	0xbeddf27a	-0.43349057
55	0xbea804d4	-0.32816184
56	0x3e8c5fbb	0.27416787
57	0xbed200ac	-0.41016138
58	0xbd90a8fe	-0.07063483
59	0x3f06a786	0.5259937
60	0x3f131f6d	0.57469827
61	0xbe3d76e1	-0.1850238
62	0xbeb3f2d8	-0.35146213
63	0xbecf6c7b	-0.40512452
64	0x3d190c47	0.037365224
65	0xbda9ba28	-0.082874596
66	0x3f3fa048	0.74853945
67	0x3dbb3e51	0.09142745
68	0xbe09cd66	-0.1345726
69	0xbe2e32eb	-0.17011611
70	0xbe3e098c	-0.1855833
71	0xbf2eedb3	-0.6833145
72	0x3e398e5a	0.18120709
73	0x3bc6e4a8	0.0060697384
74	0x3e1887b7	0.14895521
75	0x3db97414	0.09055343
76	0xbe5a86ce	-0.21340486
77	0xbe90813f	-0.28223607
78	0xbe1a4b2d	-0.1506774
79	0x3dc623a7	0.09674769
80	0xbe3d6f2c	-0.1849944
81	0x3f1fd063	0.6242735
82	0x3d3d696b	0.046243113
83	0x3d130812	0.03589637
84	0xbf52eaa0	-0.8238926
85	0xbec724ac	-0.38895166
86	0xbdf3bbad	-0.11901031
87	0xbd04b13f	-0.032395598
88	0xbe16f7ee	-0.14743015
89	0xbe885834	-0.26629794
90	0xbed8f188	-0.42371774
91	0xbf46b973	-0.77626723
92	0xbe5bf943	-0.21481805
93	0xbe14d43a	-0.14534083
94	0x3e86dcc0	0.26340294
95	0x3e1dc00b	0.1540529
96	0xbf02b105	-0.5105136
97	0xbe9077c1	-0.28216365
98	0xbef169f0	-0.47151136
99	0x3d69cedf	0.057082053
100	0xbe9419c6	-0.28925914
101	0x3e951f9c	0.2912568
102	0xbf82f94a	-1.0232327
103	0xbf2b92be	-0.67020786
104	0xbe4a30ef	-0.19745229
105	0xbf0a20fa	-0.5395657
106	0xbd13da1f	-0.03609669
107	0x3ecd74ad	0.4012808
108	0xbe79a187	-0.24378024
109	0xbeddd2a9	-0.43324783
110	0xbe4a19df	-0.19736432
111	0x3e6edf0f	0.23327278
112	0xbe24ea02	-0.16104892
113	0xbe267163	-0.16254191
114	0xbd9ad6e4	-0.075605184
115	0xbf2e509f	-0.6809177
116	0xbe3926a2	-0.18081143
117	0xbb86ccf3	-0.0041137873
118	0xbe160a8c	-0.14652461
119	0x3df6ae92	0.120450154
120	0x3f361f83	0.71141833
121	0xbf10de8f	-0.565896
122	0x3e897c3e	0.26852602
123	0xbf90abca	-1.1302426
124	0xbe82ccc1	-0.2554684
125	0x3ba1d365	0.0049385303
126	0x3eb8dd79	0.3610647
127	0xbde9e626	-0.114208505
128	0x3f0c0c70	0.5470648
129	0xbead8224	-0.33888352
130	0xbe290741	-0.16506673
131	0xbe279e9f	-0.16369103
132	0x3e0825f9	0.13295735
133	0x3d87bb17	0.066274814
134	0x3d85f9e7	0.06541806
135	0xbe5239a5	-0.20529802
136	0x3e931b0d	0.28731576
137	0x39f80e20	0.0004731277
138	0x3ef42e5c	0.4769162
139	0x3f1b4206	0.6064762
140	0x3f385ce2	0.7201673
141	0xbf86cb9a	-1.0530884
142	0xbe4fb48d	-0.20283718
143	0x3f801ca6	1.0008743
144	0x3c90e710	0.017688304
145	0x3e216d52	0.15764359
146	0xbf139fd0	-0.5766573
147	0xbec593cd	-0.38589326
148	0xbe8312d6	-0.25600308
149	0x3e00d626	0.12581691
150	0xbf626bf1	-0.88445956
151	0xbd376c48	-0.044781
152	0xbeae631d	-0.34059992
153	0x3ddfbaa2	0.10924269
154	0xbed11449	-0.4083579
155	0x3d83acd5	0.064294495
156	0xbe591961	-0.21201088
157	0xbece40d7	-0.40283844
158	0x3f5658b8	0.83729124
159	0x3ec3f651	0.38273862
160	0xbd7b2b2e	-0.061320476
161	0xbf1d6432	-0.6148101
162	0xbeae1b0f	-0.3400502
163	0x3f13738d	0.5759819
164	0xbe12cdc9	-0.14336313
165	0x3e60fdb1	0.21971776
166	0x38c2ae12	9.283064e-05
167	0x3dee4169	0.1163357
168	0x3e14fbab	0.14549129
169	0xbcf2f6f1	-0.029658766
170	0x3d9ab752	0.07554497
171	0x3d465f5b	0.04843078
172	0xbf228594	-0.63485074
173	0xbcaf932e	-0.021432485
174	0xbeb5c05a	-0.35498315
175	0xbe7b43e1	-0.24537612
176	0xbed87159	-0.42273977
177	0xbc4ef32d	-0.01263122
178	0x3e8df644	0.27726948
179	0xbe3dd028	-0.18536437
180	0x3e9fe0eb	0.31226286
181	0x3f4ce489	0.80036217
182	0x3db31870	0.087448955
183	0x3e014c74	0.12626821
184	0x3f0b1fac	0.543452
185	0xbe623fd0	-0.22094655
186	0x3ec2073d	0.37896147
187	0x3ef43015	0.47692934
188	0x3f05afa4	0.5222113
189	0xbe733661	-0.23751213
190	0xbe865129	-0.26233795
191	0x3caaa78a	0.020831842
192	0x3e9dd2c6	0.3082487
193	0xbd68078b	-0.05664782
194	0x3ea3e14b	0.32007822
195	0x3efe4c2b	0.49667487
196	0x3e6e8299	0.23292007
197	0x3ef22134	0.47290957
198	0x3e1d8862	0.15384057
199	0x3e788757	0.24270378
200	0x3f29e4a7	0.6636452
201	0xbec12a8a	-0.37727767
202	0xbe1952df	-0.14973019
203	0x3e83b64b	0.25725016
204	0xbe5acce9	-0.2136723
205	0xbe7b6b0a	-0.24552551
206	0x3eff08ec	0.49811494
207	0x3d973d5e	0.07384752
208	0xbd118f15	-0.035536844
209	0xbef49b7b	-0.47774872
210	0xbda1ff58	-0.07910031
211	0xbea8b071	-0.32947114
212	0xbaf79253	-0.0018888213
213	0xbdaf0e5d	-0.085476615
214	0xbeb96daf	-0.36216494
215	0x3e401c8c	0.1876089
216	0x3d1a5d78	0.037686795
217	0xbdc03083	-0.09384253
218	0xbd9366da	-0.07197352
219	0x3c6b7d24	0.014373098
220	0x3d443b1c	0.047907934
221	0xbea1ad31	-0.31577447
222	0xbf54dc2b	-0.8314845
223	0xbdf4745a	-0.11936255
224	0x3f0e8f98	0.55687857
225	0x3d951a1a	0.07280369
226	0xbe46b719	-0.19405784
227	0x3e71f664	0.23629147
228	0x3f03db22	0.51506245
229	0x3ed91f11	0.42406514
230	0x3e898e41	0.26866344
231	0xbd3675a6	-0.044545792
232	0xbe3a6ea2	-0.18206266
233	0xbceeef92	-0.02916697
234	0x3e3c86c2	0.18410781
235	0xbe125fcf	-0.1429436
236	0xbe58057d	-0.21095844
237	0x3f2d74c0	0.6775627
238	0x3dc2bbd5	0.09508482
239	0xbce0e2dd	-0.027451927
240	0x3e2b75a5	0.16744097
241	0x3e6bad60	0.23015356
242	0xbe22885f	-0.15872334
243	0x3e6b5cea	0.22984663
244	0x3e8ed3c4	0.2789594
245	0xbd807b1a	-0.0627348
246	0xbc95bc79	-0.018278347
247	0x3e0a487a	0.1350421
248	0x3f1c1a3c	0.6097753
249	0xbec9b07e	-0.39392465
250	0x3f13343c	0.5750158
251	0xbd59e632	-0.053198047
252	0x3e7b857a	0.24562636
253	0xbba9ae20	-0.005178228
254	0xbeeff0d8	-0.46863437
255	0x3f138add	0.57633764
