lab2/mnist_lenet_quant.tflite (tflite, 33552 bytes, 5 tensors)

mnist_lenet/dense/MatMul;StatefulPartitionedCall/mnist_lenet/dense/MatMul i1 [64, 270] scale=0.013802706 zero_point=0
0.16563247 -0.2622514 0.37267306 -0.11042165 0.938584 0.8833732 -0.09661894 0.027605413
0.7453461 -0.19323789 -0.28985682 -0.2208433 0.4416866 -0.17943518 0.12422436 -0.8971759
-0.2070406 0.9247813 -0.15182976 0.4278839 -0.81435966 -0.33126494 -0.055210825 -0.06901353
0.15182976 0.4416866 -0.30365953 0.234646 -0.15182976 0.17943518 -0.17943518 0.62112176
0.38647577 0.4554893 0.09661894 0.8833732 0.8557678 0.48309472 0.6349245 -0.234646
0.60731906 -0.56591094 -0.2070406 -0.37267306 -0.35887036 -0.06901353 0.7315434 -0.2070406
-0.2622514 -0.2070406 -0.17943518 0.15182976 -0.12422436 0.027605413 0.30365953 -0.234646
0.013802706 -0.082816236 -0.60731906 0.5521082 -0.041408118 0.2208433 0.48309472 -0.082816236
-0.37267306 -0.4554893 0.7177407 0.06901353 0.4416866 0.013802706 -0.49689743 0.4278839
-0.15182976 0.38647577 -0.35887036 -0.041408118 0.40027848 -0.17943518 0.62112176 1.1042165
-0.28985682 0.5245028 -1.1594273 -0.013802706 0.0 -0.6763326 -0.16563247 0.06901353
0.09661894 0.082816236 -0.5383055 0.24844871 -0.09661894 -0.4140812 0.082816236 0.2070406
0.055210825 0.234646 0.09661894 -0.041408118 0.40027848 -0.57971364 0.06901353 0.30365953
0.4416866 -0.57971364 0.35887036 0.041408118 0.12422436 0.06901353 -0.19323789 -0.2070406
-0.5383055 0.041408118 0.37267306 1.035203 -0.24844871 0.33126494 0.24844871 0.5383055
-0.31746224 0.31746224 0.013802706 0.5107001 -0.11042165 -0.35887036 0.4278839 0.81435966
0.469292 0.234646 0.7177407 -0.013802706 -0.15182976 -0.6763326 0.2622514 0.17943518
1.0214002 0.28985682 0.35887036 -0.2622514 0.19323789 0.055210825 0.4278839 -0.027605413
-0.62112176 -0.17943518 -0.24844871 -0.40027848 -0.17943518 0.5521082 0.0 0.28985682
0.6763326 0.12422436 -0.06901353 -1.1456246 0.7453461 0.19323789 -0.2760541 0.2622514
0.055210825 0.2760541 0.16563247 0.2760541 -0.9247813 0.11042165 0.4278839 -0.2622514
0.31746224 0.17943518 -0.59351635 -0.12422436 -0.4416866 0.013802706 -0.33126494 -0.30365953
-1.0214002 -0.041408118 -0.19323789 -0.19323789 -0.027605413 0.34506765 0.0 -0.49689743
0.2622514 -0.31746224 -0.234646 0.2622514 -0.5107001 0.31746224 -0.19323789 0.5107001
0.234646 -0.16563247 0.06901353 -0.49689743 0.13802706 0.6901353 0.77295154 -1.076611
-0.24844871 0.19323789 -0.4554893 -0.041408118 -0.31746224 0.15182976 0.40027848 0.4416866
0.5107001 -0.09661894 -0.06901353 0.7315434 -0.027605413 0.11042165 0.34506765 -0.055210825
-0.11042165 -0.469292 -0.11042165 -0.5107001 0.33126494 0.027605413 0.30365953 0.027605413
0.2070406 0.11042165 0.31746224 0.055210825 0.34506765 -0.34506765 0.2208433 0.0
0.48309472 0.09661894 -0.13802706 0.6349245 -0.49689743 -0.041408118 0.16563247 0.06901353
0.60731906 0.15182976 0.082816236 -0.17943518 -0.5383055 -0.5107001 0.703938 -0.34506765
-0.06901353 -1.1318219 -0.2760541 0.5107001 1.0628084 0.11042165 0.09661894 -0.027605413
00000000: 0ced 1bf8 4440 f902 36f2 ebf0 20f3 09bf
00000010: f143 f51f c5e8 fcfb 0b20 ea11 f50d f32d
00000020: 1c21 0740 3e23 2eef 2cd7 f1e5 e6fb 35f1
00000030: edf1 f30b f702 16ef 01fa d428 fd10 23fa
00000040: e5df 3405 2001 dc1f f51c e6fd 1df3 2d50
00000050: eb26 acff 00cf f405 0706 d912 f9e2 060f
00000060: 0411 07fd 1dd6 0516 20d6 1a03 0905 f2f1
00000070: d903 1b4b ee18 1227 e917 0125 f8e6 1f3b
00000080: 2211 34ff f5cf 130d 4a15 1aed 0e04 1ffe
00000090: d3f3 eee3 f328 0015 3109 fbad 360e ec13
000000a0: 0414 0c14 bd08 1fed 170d d5f7 e001 e8ea
000000b0: b6fd f2f2 fe19 00dc 13e9 ef13 db17 f225
000000c0: 11f4 05dc 0a32 38b2 ee0e dffd e90b 1d20
000000d0: 25f9 fb35 fe08 19fc f8de f8db 1802 1602
000000e0: 0f08 1704 19e7 1000 2307 f62e dcfd 0c05
000000f0: 2c0b 06f3 d9db 33e7 fbae ec25 4d08 07fe

mnist_lenet/dense_1/MatMul;StatefulPartitionedCall/mnist_lenet/dense_1/MatMul i1 [10, 64] scale=0.031210808 zero_point=0
-0.09363242 -1.0611675 -1.5917512 -0.24968646 -0.09363242 -0.93632424 -1.0299567 -1.0923783
-0.24968646 -2.2159674 -0.09363242 -1.1547999 -0.7490594 -0.7802702 -0.031210808 -0.811481
-1.1860107 -0.84269184 -1.1860107 -2.4968646 0.21847565 -0.031210808 -0.062421616 -3.745297
-0.53058374 0.28089726 -1.779016 -0.09363242 -0.84269184 -0.09363242 0.12484323 -0.99874586
-0.15605403 0.062421616 -0.31210807 -0.8739026 -0.59300536 -0.031210808 -0.68663776 -2.3095999
-1.622962 -1.2172215 -1.0299567 -2.122335 -0.59300536 -1.1547999 -1.466908 -1.2484323
-1.8102269 -0.4057405 -0.90511346 -0.031210808 -0.7490594 0.062421616 -1.2172215 -0.84269184
-1.3420647 -1.0299567 -0.59300536 -1.2484323 -0.24968646 -0.12484323 -3.9637725 -0.46816212
-1.5605404 -1.4044864 -1.466908 -0.21847565 -1.4981188 -0.8739026 -0.4369513 -1.2172215
-0.062421616 -1.7478052 -0.21847565 -0.21847565 -1.0299567 -1.2484323 -1.3732755 -0.18726484
-0.93632424 -2.4968646 -1.6541728 -0.68663776 -0.18726484 -0.12484323 -1.3420647 0.0
-0.24968646 -1.8102269 -1.5605404 -1.2796432 0.031210808 -0.18726484 -0.7802702 -1.2796432
-1.310854 -0.31210807 -1.8414377 -0.7802702 -0.31210807 -0.24968646 -1.4356972 -1.5917512
-0.7490594 -0.09363242 -2.1535459 -1.6853837 -0.18726484 -0.031210808 -0.4057405 0.12484323
-0.28089726 -0.09363242 -0.655427 -1.123589 -0.5617945 -0.5617945 -0.99874586 -0.15605403
-0.53058374 -0.4369513 -1.0611675 -1.310854 -0.062421616 -0.062421616 -1.6853837 -0.4369513
-0.84269184 -1.622962 -0.3745297 -0.46816212 -0.99874586 0.062421616 -0.062421616 -0.59300536
-1.4356972 -0.5617945 -0.68663776 -0.031210808 -0.15605403 0.0 -0.031210808 -1.0611675
-0.031210808 -1.123589 -0.5617945 -0.18726484 -0.12484323 0.031210808 -1.310854 -2.3720214
-0.4057405 -1.123589 -1.0299567 -0.84269184 -0.31210807 -0.811481 -0.7802702 -0.7802702
-1.3420647 -0.28089726 0.062421616 -0.8739026 -0.09363242 -0.28089726 -0.062421616 -1.1547999
-0.53058374 -0.4369513 -2.1535459 -0.34331888 -0.49937293 -0.12484323 -0.062421616 -1.622962
-0.90511346 -1.310854 -0.7802702 -0.21847565 -1.123589 -1.2796432 -0.18726484 -0.21847565
-1.466908 0.21847565 -1.5605404 -0.99874586 -0.31210807 -0.09363242 -1.6541728 -0.99874586
-1.466908 -0.15605403 -2.247178 -1.4044864 -1.2796432 -0.34331888 -0.09363242 -0.99874586
-1.8726485 0.031210808 -0.3745297 -1.0923783 -1.2796432 0.031210808 -0.93632424 0.0
-0.9675351 -1.0299567 -1.7165945 -1.123589 0.0 0.09363242 -1.0923783 -1.7165945
-1.3420647 -1.622962 -1.4044864 -0.3745297 -0.93632424 -0.811481 -2.122335 -0.99874586
-0.655427 -0.24968646 -0.84269184 0.0 -0.53058374 -1.2796432 -0.21847565 -0.062421616
-0.7802702 0.0 -1.7165945 -0.24968646 -1.7165945 0.062421616 -1.4356972 -1.0299567
-1.123589 -1.1547999 0.031210808 -0.84269184 -0.12484323 -1.8726485 -0.18726484 -0.34331888
-1.5917512 -0.4057405 0.4057405 -0.34331888 -0.5617945 0.09363242 -0.4057405 -1.0923783
00000000: fdde cdf8 fde2 dfdd f8b9 fddb e8e7 ffe6
00000010: dae5 dab0 07ff fe88 ef09 c7fd e5fd 04e0
00000020: fb02 f6e4 edff eab6 ccd9 dfbc eddb d1d8
00000030: c6f3 e3ff e802 d9e5 d5df edd8 f8fc 81f1
00000040: ced3 d1f9 d0e4 f2d9 fec8 f9f9 dfd8 d4fa
00000050: e2b0 cbea fafc d500 f8c6 ced7 01fa e7d7
00000060: d6f6 c5e7 f6f8 d2cd e8fd bbca faff f304
00000070: f7fd ebdc eeee e0fb eff2 ded6 fefe caf2
00000080: e5cc f4f1 e002 feed d2ee eaff fb00 ffde
00000090: ffdc eefa fc01 d6b4 f3dc dfe5 f6e6 e7e7
000000a0: d5f7 02e4 fdf7 fedb eff2 bbf5 f0fc fecc
000000b0: e3d6 e7f9 dcd7 faf9 d107 cee0 f6fd cbe0
000000c0: d1fb b8d3 d7f5 fde0 c401 f4dd d701 e200
000000d0: e1df c9dc 0003 ddc9 d5cc d3f4 e2e6 bce0
000000e0: ebf8 e500 efd7 f9fe e700 c9f8 c902 d2df
000000f0: dcdb 01e5 fcc4 faf5 cdf3 0df5 ee03 f3dd

mnist_lenet/conv2d/Conv2D;StatefulPartitionedCall/mnist_lenet/conv2d/Conv2D i1 [10, 3, 3, 1]
-28 -54 -88 -15 -127 -72 35 -4
-2 39 43 59 -37 20 6 -127
-99 -100 -13 -127 -84 -82 -54 24
57 59 56 -10 24 -102 -127 11
-126 -55 27 9 33 -58 -42 27
-92 -89 -33 -127 -94 5 24 -118
66 -50 -127 -1 -10 -87 -33 -37
37 -71 7 31 -49 -127 -23 40
-49 -127 36 97 -31 -40 52 50
3 37 -127 -70 47 61 -125 -100
57 -111 7 127 -96 37 25 -58
18 111
00000000: e4ca a8f1 81b8 23fc fe27 2b3b db14 0681
00000010: 9d9c f381 acae ca18 393b 38f6 189a 810b
00000020: 82c9 1b09 21c6 d61b a4a7 df81 a205 188a
00000030: 42ce 81ff f6a9 dfdb 25b9 071f cf81 e928
00000040: cf81 2461 e1d8 3432 0325 81ba 2f3d 839c
00000050: 3991 077f a025 19c6 126f

mnist_lenet/conv2d_1/Conv2D;StatefulPartitionedCall/mnist_lenet/conv2d_1/Conv2D i1 [20, 3, 3, 10]
57 -38 84 2 -10 -25 70 -13
-24 30 15 -88 15 1 5 -51
-119 -10 -19 -30 11 -109 -15 70
-4 -13 -60 78 -2 -43 -13 76
-106 14 -4 -94 28 45 0 -47
-21 -72 -30 81 -15 -24 -88 5
58 -33 -59 12 -32 -42 14 -18
-52 16 -51 -73 -20 -29 -59 -34
-15 -59 -13 -55 6 97 4 -99
44 48 -25 85 10 25 -4 48
-74 87 -127 -3 -16 27 -98 -21
-67 -70 3 0 8 -29 -1 -4
44 9 -4 -13 -18 2 -38 -22
-7 11 33 26 22 7 26 -6
7 11 16 12 -1 36 8 6
-5 4 -26 -2 -13 -6 6 -28
4 -30 10 2 2 -29 -19 -25
-23 -14 -1 6 5 -83 30 -6
-7 -21 -74 -4 8 39 10 -127
14 2 -11 -35 -52 5 -5 28
28 -31 30 -3 -13 -28 -84 -16
-23 4 -34 15 -39 -40 -31 27
-100 -50 -12 -19 -13 3 -84 -44
-36 4 29 -33 -1 9 -14 -14
-35 31 -24 -40 25 -26 28 28
-7 -37 -34 26 -21 16 29 7
11 -23 -43 33 -45 -47 -29 -41
1 -93 -19 -40 -53 11 -127 -17
2 -61 -4 -34 14 24 -28 16
-29 -14 11 -24 1 27 12 3
-2 -43 17 42 -31 -20 -37 3
-19 -19 -9 38 -6 -31 -22 0
00000000: 39da 5402 f6e7 46f3 e81e 0fa8 0f01 05cd
00000010: 89f6 ede2 0b93 f146 fcf3 c44e fed5 f34c
00000020: 960e fca2 1c2d 00d1 ebb8 e251 f1e8 a805
00000030: 3adf c50c e0d6 0eee cc10 cdb7 ece3 c5de
00000040: f1c5 f3c9 0661 049d 2c30 e755 0a19 fc30
00000050: b657 81fd f01b 9eeb bdba 0300 08e3 fffc
00000060: 2c09 fcf3 ee02 daea f90b 211a 1607 1afa
00000070: 070b 100c ff24 0806 fb04 e6fe f3fa 06e4
00000080: 04e2 0a02 02e3 ede7 e9f2 ff06 05ad 1efa
00000090: f9eb b6fc 0827 0a81 0e02 f5dd cc05 fb1c
000000a0: 1ce1 1efd f3e4 acf0 e904 de0f d9d8 e11b
000000b0: 9cce f4ed f303 acd4 dc04 1ddf ff09 f2f2
000000c0: dd1f e8d8 19e6 1c1c f9db de1a eb10 1d07
000000d0: 0be9 d521 d3d1 e3d7 01a3 edd8 cb0b 81ef
000000e0: 02c3 fcde 0e18 e410 e3f2 0be8 011b 0c03
000000f0: fed5 112a e1ec db03 eded f726 fae1 ea00

mnist_lenet/conv2d_2/Conv2D;StatefulPartitionedCall/mnist_lenet/conv2d_2/Conv2D i1 [30, 3, 3, 20]
-1 1 -68 -29 9 -26 40 -52
32 35 62 105 -4 -97 -29 -1
40 74 -32 -9 37 -14 10 -28
-48 -49 -57 -5 -86 -16 -6 30
-8 -2 59 57 -23 13 34 -14
83 31 57 11 25 49 -91 2
21 16 -127 50 0 55 62 21
-4 -58 -36 -19 -35 -18 -3 17
11 73 -30 37 14 4 -58 50
-50 -5 -8 -22 26 -41 31 43
-56 -32 33 -19 -76 20 -51 8
5 -48 -61 -63 13 -2 -11 -24
25 -7 -23 42 -87 2 73 -78
31 -48 -71 -99 36 109 45 35
2 -90 -68 -55 114 82 -88 -44
15 24 33 -34 -67 1 -14 2
-56 42 -78 -69 25 -49 31 28
46 -110 76 51 -39 -64 -16 -85
-80 -53 49 -108 14 -15 -18 16
36 5 64 -48 -49 -46 -16 -27
5 6 -33 -54 -32 -14 123 -12
30 -78 34 73 -98 -106 -23 -90
-12 16 -16 -21 14 13 -26 -81
-53 -88 -10 -78 -31 9 -13 48
5 -54 -16 39 17 18 -21 -78
-9 -123 -27 -50 58 -59 -11 7
-53 -20 -58 67 -34 -63 -21 -34
-42 -25 20 -19 -7 61 62 47
17 22 -41 5 -17 26 -115 -11
-29 14 4 10 12 106 81 -27
39 -12 -99 22 95 -31 30 21
-16 25 1 112 -81 27 -38 127
00000000: ff01 bce3 09e6 28cc 2023 3e69 fc9f e3ff
00000010: 284a e0f7 25f2 0ae4 d0cf c7fb aaf0 fa1e
00000020: f8fe 3b39 e90d 22f2 531f 390b 1931 a502
00000030: 1510 8132 0037 3e15 fcc6 dced ddee fd11
00000040: 0b49 e225 0e04 c632 cefb f8ea 1ad7 1f2b
00000050: c8e0 21ed b414 cd08 05d0 c3c1 0dfe f5e8
00000060: 19f9 e92a a902 49b2 1fd0 b99d 246d 2d23
00000070: 02a6 bcc9 7252 a8d4 0f18 21de bd01 f202
00000080: c82a b2bb 19cf 1f1c 2e92 4c33 d9c0 f0ab
00000090: b0cb 3194 0ef1 ee10 2405 40d0 cfd2 f0e5
000000a0: 0506 dfca e0f2 7bf4 1eb2 2249 9e96 e9a6
000000b0: f410 f0eb 0e0d e6af cba8 f6b2 e109 f330
000000c0: 05ca f027 1112 ebb2 f785 e5ce 3ac5 f507
000000d0: cbec c643 dec1 ebde d6e7 14ed f93d 3e2f
000000e0: 1116 d705 ef1a 8df5 e30e 040a 0c6a 51e5
000000f0: 27f4 9d16 5fe1 1e15 f019 0170 af1b da7f
